vibTouch_Flutter/assets/models/vibTouch.tflite (tflite, 536552 bytes, 34 tensors)

model/conv1d/Conv1D f4 [32]
0	0x00000000	0.0
1	0x00000000	0.0
2	0x00000000	0.0
3	0x00000000	0.0
4	0x00000000	0.0
5	0x00000000	0.0
6	0x00000000	0.0
7	0x00000000	0.0
8	0x00000000	0.0
9	0x00000000	0.0
10	0x00000000	0.0
11	0x00000000	0.0
12	0x00000000	0.0
13	0x00000000	0.0
14	0x00000000	0.0
15	0x00000000	0.0
16	0x00000000	0.0
17	0x00000000	0.0
18	0x00000000	0.0
19	0x00000000	0.0
20	0x00000000	0.0
21	0x00000000	0.0
22	0x00000000	0.0
23	0x00000000	0.0
24	0x00000000	0.0
25	0x00000000	0.0
26	0x00000000	0.0
27	0x00000000	0.0
28	0x00000000	0.0
29	0x00000000	0.0
30	0x00000000	0.0
31	0x00000000	0.0

model/conv1d_3/Conv1D f4 [32, 1, 3, 1]
0	0xbe67460d	-0.22585316
1	0x3e75588d	0.2395956
2	0xbc11fa17	-0.008909724
3	0xbe3f5e1d	-0.18688245
4	0xbe4c7e49	-0.19970049
5	0x3dda991b	0.10673734
6	0x3de35e45	0.11101965
7	0x3dad9015	0.08474747
8	0xbe56b9d0	-0.2096932
9	0x3d692718	0.05692205
10	0x3de4893b	0.11158987
11	0x3e74755d	0.23872896
12	0xbe3d7522	-0.18501714
13	0x3dced960	0.10100055
14	0xbe21b530	-0.15791774
15	0x3e14a0be	0.14514443
16	0x3dba0898	0.090836704
17	0xbe5fb14d	-0.21844979
18	0xbd1f293b	-0.03885768
19	0x3e158107	0.14600001
20	0xbb3a42a2	-0.0028421064
21	0x3c87eaa0	0.01659137
22	0xbdddec69	-0.10836107
23	0xbdcc6783	-0.09980681
24	0x3e723db7	0.23656355
25	0xbda79cdf	-0.08184218
26	0xbc0654c2	-0.008198919
27	0x3e593dfd	0.21215053
28	0x3e2d1979	0.16904248
29	0x3e82de28	0.25560117
30	0xbd909c9e	-0.07061122
31	0xbd1d36bf	-0.038382288
32	0x3de2b7d4	0.11070219
33	0x3d2d98d1	0.042382065
34	0xbe18dff6	-0.14929184
35	0xbd7a9c72	-0.061184354
36	0xbe4c5f88	-0.19958317
37	0x3e280a76	0.1641024
38	0xbe5456e5	-0.20736273
39	0x3e04bb77	0.12962137
40	0x3baee187	0.0053369435
41	0xbe0982f9	-0.13428868
42	0x3d87e41f	0.066353075
43	0x3de1674e	0.11006032
44	0xbd07d192	-0.033158846
45	0x3e1f3726	0.15548381
46	0x3cef1316	0.029183906
47	0x3e4c58f2	0.19955805
48	0x3e4db61e	0.20089003
49	0xbe1db819	-0.15402259
50	0x3e3760a8	0.17907965
51	0xbe78783a	-0.24264613
52	0x3e388844	0.18020731
53	0x3e2ea67c	0.17055696
54	0xbd834859	-0.064102836
55	0x3e03d5d9	0.12874545
56	0x3d1e5891	0.038658682
57	0xbb03d25d	-0.00201144
58	0xbb9f51af	-0.0048620324
59	0x3db52fbf	0.088469975
60	0x3e752231	0.23938824
61	0xbe022858	-0.12710702
62	0x3dd4373b	0.10362097
63	0x3e43831f	0.19092987
64	0x3e02368e	0.12716123
65	0x3e09a5d8	0.1344217
66	0x3e24e721	0.16103794
67	0xbdd2cec6	-0.10293345
68	0x3e427665	0.18990476
69	0x3e2d8fb8	0.16949356
70	0x3d1457de	0.03621661
71	0x3d60096d	0.05469649
72	0xbdc55c88	-0.096367896
73	0x3e57579d	0.21029516
74	0xbd063ee0	-0.032774806
75	0xbcf89a7b	-0.0303471
76	0xbe6cc82d	-0.23123236
77	0xbce485c2	-0.027895812
78	0xbe1f8f49	-0.15582003
79	0xbe04e11f	-0.12976502
80	0x3dac6ca6	0.084191605
81	0x3d94c389	0.07263858
82	0xbd786793	-0.06064565
83	0xbe6e8720	-0.23293734
84	0x3ba1da0e	0.004939324
85	0xbe179862	-0.14804223
86	0xbe83a93d	-0.25715056
87	0x3ddd4ffc	0.108062714
88	0x3dfd6a22	0.12373759
89	0xbd6b0b1e	-0.05738365
90	0xbd9a2846	-0.07527213
91	0x3d36979b	0.044578176
92	0xbcb7dce9	-0.022444205
93	0x3e484d10	0.19560647
94	0x3e266852	0.16250733
95	0xbd98d151	-0.07461799

model/conv1d_1/Conv1D f4 [64]
0	0x00000000	0.0
1	0x00000000	0.0
2	0x00000000	0.0
3	0x00000000	0.0
4	0x00000000	0.0
5	0x00000000	0.0
6	0x00000000	0.0
7	0x00000000	0.0
8	0x00000000	0.0
9	0x00000000	0.0
10	0x00000000	0.0
11	0x00000000	0.0
12	0x00000000	0.0
13	0x00000000	0.0
14	0x00000000	0.0
15	0x00000000	0.0
16	0x00000000	0.0
17	0x00000000	0.0
18	0x00000000	0.0
19	0x00000000	0.0
20	0x00000000	0.0
21	0x00000000	0.0
22	0x00000000	0.0
23	0x00000000	0.0
24	0x00000000	0.0
25	0x00000000	0.0
26	0x00000000	0.0
27	0x00000000	0.0
28	0x00000000	0.0
29	0x00000000	0.0
30	0x00000000	0.0
31	0x00000000	0.0
32	0x00000000	0.0
33	0x00000000	0.0
34	0x00000000	0.0
35	0x00000000	0.0
36	0x00000000	0.0
37	0x00000000	0.0
38	0x00000000	0.0
39	0x00000000	0.0
40	0x00000000	0.0
41	0x00000000	0.0
42	0x00000000	0.0
43	0x00000000	0.0
44	0x00000000	0.0
45	0x00000000	0.0
46	0x00000000	0.0
47	0x00000000	0.0
48	0x00000000	0.0
49	0x00000000	0.0
50	0x00000000	0.0
51	0x00000000	0.0
52	0x00000000	0.0
53	0x00000000	0.0
54	0x00000000	0.0
55	0x00000000	0.0
56	0x00000000	0.0
57	0x00000000	0.0
58	0x00000000	0.0
59	0x00000000	0.0
60	0x00000000	0.0
61	0x00000000	0.0
62	0x00000000	0.0
63	0x00000000	0.0

model/conv1d_4/Conv1D f4 [64, 1, 3, 32]
0	0xbdad109c	-0.084504336
1	0x3e02c2a2	0.12769559
2	0xbd7dde9b	-0.06197987
3	0xbcbafac6	-0.022824656
4	0x3cf67d58	0.030089065
5	0xbe078b88	-0.1323682
6	0xbe08d45d	-0.1336226
7	0xbd9fcc1c	-0.07802603
8	0xbd82b368	-0.06381875
9	0xbd0e51d0	-0.03474599
10	0x3c8ef099	0.01744871
11	0xbdb85608	-0.09000784
12	0xbb8802b8	-0.0041507147
13	0x3c9e64c2	0.019335154
14	0x3e06287e	0.13101384
15	0xbd688db4	-0.056775764
16	0xbdcd3c60	-0.10021281
17	0x3e071865	0.131929
18	0xbe132215	-0.1436847
19	0xbc816998	-0.015797421
20	0xbdd69796	-0.104781315
21	0x3d99a468	0.07502061
22	0xbc198439	-0.009369903
23	0x3df32d89	0.118739195
24	0xbd038197	-0.03210601
25	0xbd901be1	-0.070365675
26	0xbe15586b	-0.1458451
27	0xbd90b48c	-0.070656866
28	0xbd22f01b	-0.039779764
29	0xbdd8e589	-0.10590655
30	0xbc9b5508	-0.018961444
31	0xbda5c86a	-0.080948666
32	0xbdfc4d6a	-0.12319453
33	0xbd822dc7	-0.063563876
34	0xbde934fd	-0.1138706
35	0x3da6ebbf	0.08150434
36	0x3d92b3ea	0.07163222
37	0x3bd8bf52	0.006614604
38	0x3d32ebe3	0.04368199
39	0xbd1d4b6f	-0.038402017
40	0xbde028d2	-0.10945286
41	0x3dcaab21	0.098959215
42	0xbd6f7891	-0.05846459
43	0x3cd37521	0.025812687
44	0x3d927b81	0.07152463
45	0xbd0f90ed	-0.03505032
46	0x3d80944f	0.062782876
47	0xbd57e601	-0.052709583
48	0x3db9a474	0.0906457
49	0x3dd3289a	0.103104785
50	0xbdc4a224	-0.09601238
51	0x3de88a02	0.11354448
52	0xbd509632	-0.050924487
53	0xbdd37967	-0.1032589
54	0x3d3d8628	0.04627052
55	0xbcb7728b	-0.022393486
56	0xbd252465	-0.04031791
57	0xbde158b5	-0.11003248
58	0x3e143461	0.14473106
59	0x3da3eed6	0.08004539
60	0xbd89717b	-0.06711098
61	0x3de22606	0.11042409
62	0x3de55081	0.111969955
63	0x3dd423d6	0.10358398
64	0xbdbe4e1e	-0.092922434
65	0x3de786f8	0.1130504
66	0x3da2fce1	0.07958389
67	0xbe0966d2	-0.13418129
68	0x3dfca6aa	0.12336476
69	0x3cf41d85	0.029799232
70	0x3c1f9dce	0.009742213
71	0xbdef7195	-0.11691586
72	0xbc85b11f	-0.01631981
73	0x3bfcbb72	0.007712775
74	0xbdcdc14a	-0.100466326
75	0xbc9d527f	-0.019204376
76	0x3e0845cb	0.13307874
77	0xbe028429	-0.12745728
78	0xbe198987	-0.14993869
79	0x3de57aaf	0.11205041
80	0xbe060c90	-0.1309073
81	0x3dc99b74	0.098441035
82	0xbe09dd56	-0.13463339
83	0xbda14bea	-0.078758076
84	0xbd731e7c	-0.059355244
85	0xbd190855	-0.03736146
86	0x3ddbb2c9	0.1072746
87	0x3dfa398e	0.12218009
88	0x3dd53939	0.10411305
89	0xbd96e314	-0.073675305
90	0x3d873815	0.06602494
91	0xbe040929	-0.1289412
92	0xbe1a2ffc	-0.15057367
93	0xbdac26b4	-0.084058195
94	0xbde4b94c	-0.11168155
95	0x3e030da4	0.12798172
96	0x3e065802	0.1311951
97	0x3c6e5c3b	0.014548357
98	0x3c751b11	0.014960066
99	0x3c808d75	0.015692452
100	0x3bbe3ecf	0.005805827
101	0x3be5bbc8	0.0070109107
102	0xbdb9116c	-0.09036526
103	0x3d939d40	0.072077274
104	0xbe00c45e	-0.12574908
105	0x3c4f0323	0.012635025
106	0xbd972b6c	-0.07381329
107	0xbe06f5ba	-0.13179675
108	0x3dcc5539	0.099771924
109	0x3dfe9987	0.12431627
110	0xbd163fb1	-0.036681835
111	0x3db0fe4e	0.08642255
112	0xbbbf993e	-0.0058471253
113	0x3d099015	0.033584673
114	0xbdd31653	-0.103069924
115	0xbe03eb51	-0.12882735
116	0xbd1f75c1	-0.03893066
117	0x3d9e12ee	0.07718454
118	0x3c3d3492	0.011548178
119	0xbd25eb46	-0.040507577
120	0xbbfb709a	-0.0076733353
121	0xbc3a0ac1	-0.011355103
122	0xbd9fc08b	-0.078003965
123	0x3dbcdb05	0.09221462
124	0x3d95282e	0.07283054
125	0x3d2642d9	0.040591095
126	0xbde69202	-0.112583175
127	0x3dfbf1f5	0.12302009
128	0x3cc83175	0.024437645
129	0x3cfd537c	0.030923598
130	0x3c865038	0.016395673
131	0x3debb148	0.11508423
132	0x3d813305	0.06308559
133	0x3dcb9da0	0.09942174
134	0xbd1ae268	-0.037813574
135	0xbde3e4ce	-0.111276254
136	0xbd85566a	-0.06510623
137	0xbd1b9cad	-0.037991215
138	0x3da8c10d	0.082399465
139	0xbc9d93c2	-0.019235495
140	0x3cf76739	0.030200588
141	0xbc72becc	-0.014815997
142	0x3d891a78	0.06694502
143	0x3d2ab00a	0.04167179
144	0x3e0218bf	0.12704752
145	0x3c87dbd6	0.016584318
146	0xbe018d5d	-0.12651582
147	0x3db2d394	0.087317616
148	0x3d7ff8a6	0.06249299
149	0x3c7aa19c	0.01529732
150	0x3de74699	0.11292762
151	0x3c96b1b9	0.018395292
152	0xbe0f4176	-0.13989815
153	0xbdd3d8ee	-0.103441104
154	0x3dfb0138	0.12256092
155	0x3d27f4cc	0.04100494
156	0x3d92362b	0.07139238
157	0xbde429e7	-0.11140805
158	0x3e047742	0.12936118
159	0x3d92724f	0.07150709
160	0x3e0faf7e	0.14031789
161	0x3d278a3e	0.040903322
162	0xbd803106	-0.062593505
163	0x3d9af2c4	0.07565835
164	0xbda9ee4e	-0.08297406
165	0x3be478cf	0.0069724093
166	0x3bb85b54	0.0056261215
167	0x3ca5d568	0.020243362
168	0x3dde9a8a	0.1086932
169	0xbdd8d64e	-0.105877504
170	0x3e094db3	0.13408546
171	0x3e0e9811	0.13925196
172	0x3ce7d7ce	0.028301146
173	0x3db72a09	0.089435644
174	0xbe1351ac	-0.14386624
175	0x3df536d0	0.11973345
176	0xbda4914d	-0.080355264
177	0xbccf4c05	-0.025304804
178	0xbdb994ae	-0.090615615
179	0x3ca72f9b	0.020408442
180	0x3dbe59b4	0.09294453
181	0x3db048cc	0.08607635
182	0x3dc93ed9	0.0982644
183	0x3decb274	0.11557475
184	0xbd8dd30f	-0.06925022
185	0xbd936e15	-0.07198731
186	0xbdb21563	-0.086954854
187	0x3db6c94b	0.08925112
188	0xbdbf0e13	-0.09328856
189	0xbd2ce36c	-0.042209074
190	0xbce78cbf	-0.028265355
191	0xbd870ffc	-0.06594846
192	0x3dfc0a58	0.123066604
193	0x3d817e6f	0.063229434
194	0xbd519d57	-0.05117544
195	0xbc4ea138	-0.01261168
196	0xbc445452	-0.011982994
197	0x3dc1ef3c	0.094694585
198	0x3d7f45ad	0.062322307
199	0xbdd9d0c8	-0.10635525
200	0x3bc990df	0.006151303
201	0xbd0ac7b6	-0.033881865
202	0xbd75dd4e	-0.060025506
203	0xbd4dbe18	-0.050230116
204	0x3e08b500	0.13350296
205	0xbd394b32	-0.045237727
206	0x3e09bc1f	0.13450669
207	0xbda0eb41	-0.07857371
208	0x3dcefa9c	0.10106394
209	0xbe025fdf	-0.12731884
210	0x3d94af54	0.07260004
211	0xbd8f17ec	-0.069869846
212	0x3d0ca7c6	0.03433969
213	0xbe061ad9	-0.13096179
214	0xbdf18388	-0.11792666
215	0xbbbcefff	-0.0057659145
216	0x3e04f25c	0.12983078
217	0xbddd13ad	-0.107947685
218	0x3d9992d2	0.07498707
219	0xbcee8a83	-0.029118782
220	0x3e133d20	0.14378786
221	0x3e0ccf9b	0.1375107
222	0xbdeb1cfb	-0.11480137
223	0xbd822381	-0.06354428
224	0x3e0521de	0.130012
225	0xbdfc6b4e	-0.12325154
226	0xbb0e1803	-0.0021681793
227	0xbdce572f	-0.10075223
228	0xbd66d03f	-0.056350943
229	0xbd7ffcc6	-0.062496923
230	0xbd3e8bae	-0.046519928
231	0xbd2f9f47	-0.042876508
232	0x3e106904	0.1410256
233	0x3ddf96ab	0.109174095
234	0xbe1800ca	-0.14844051
235	0x3de0df31	0.109800704
236	0x3cd56d38	0.026053056
237	0xbe09364c	-0.13399619
238	0xbbd1184f	-0.0063810716
239	0x3e154543	0.14577202
240	0x3d8f145f	0.06986307
241	0xbdd62d10	-0.10457814
242	0x3e01490f	0.12625526
243	0x3c8d78b3	0.017269468
244	0xbd88ee78	-0.06686109
245	0xbd5b8be8	-0.053600222
246	0xbdccbab4	-0.09996548
247	0x3c3fd37d	0.011708138
248	0xbe09a114	-0.13440353
249	0x3e00f248	0.12592423
250	0x3d6ac3e1	0.05731571
251	0x3db876a9	0.09007008
252	0x3dbdb934	0.0926384
253	0xbd49ebc8	-0.049297124
254	0xbce6d79c	-0.028178982
255	0x3dba0acb	0.0908409

model/conv1d_2/Conv1D f4 [128]
0	0x00000000	0.0
1	0x00000000	0.0
2	0x00000000	0.0
3	0x00000000	0.0
4	0x00000000	0.0
5	0x00000000	0.0
6	0x00000000	0.0
7	0x00000000	0.0
8	0x00000000	0.0
9	0x00000000	0.0
10	0x00000000	0.0
11	0x00000000	0.0
12	0x00000000	0.0
13	0x00000000	0.0
14	0x00000000	0.0
15	0x00000000	0.0
16	0x00000000	0.0
17	0x00000000	0.0
18	0x00000000	0.0
19	0x00000000	0.0
20	0x00000000	0.0
21	0x00000000	0.0
22	0x00000000	0.0
23	0x00000000	0.0
24	0x00000000	0.0
25	0x00000000	0.0
26	0x00000000	0.0
27	0x00000000	0.0
28	0x00000000	0.0
29	0x00000000	0.0
30	0x00000000	0.0
31	0x00000000	0.0
32	0x00000000	0.0
33	0x00000000	0.0
34	0x00000000	0.0
35	0x00000000	0.0
36	0x00000000	0.0
37	0x00000000	0.0
38	0x00000000	0.0
39	0x00000000	0.0
40	0x00000000	0.0
41	0x00000000	0.0
42	0x00000000	0.0
43	0x00000000	0.0
44	0x00000000	0.0
45	0x00000000	0.0
46	0x00000000	0.0
47	0x00000000	0.0
48	0x00000000	0.0
49	0x00000000	0.0
50	0x00000000	0.0
51	0x00000000	0.0
52	0x00000000	0.0
53	0x00000000	0.0
54	0x00000000	0.0
55	0x00000000	0.0
56	0x00000000	0.0
57	0x00000000	0.0
58	0x00000000	0.0
59	0x00000000	0.0
60	0x00000000	0.0
61	0x00000000	0.0
62	0x00000000	0.0
63	0x00000000	0.0
64	0x00000000	0.0
65	0x00000000	0.0
66	0x00000000	0.0
67	0x00000000	0.0
68	0x00000000	0.0
69	0x00000000	0.0
70	0x00000000	0.0
71	0x00000000	0.0
72	0x00000000	0.0
73	0x00000000	0.0
74	0x00000000	0.0
75	0x00000000	0.0
76	0x00000000	0.0
77	0x00000000	0.0
78	0x00000000	0.0
79	0x00000000	0.0
80	0x00000000	0.0
81	0x00000000	0.0
82	0x00000000	0.0
83	0x00000000	0.0
84	0x00000000	0.0
85	0x00000000	0.0
86	0x00000000	0.0
87	0x00000000	0.0
88	0x00000000	0.0
89	0x00000000	0.0
90	0x00000000	0.0
91	0x00000000	0.0
92	0x00000000	0.0
93	0x00000000	0.0
94	0x00000000	0.0
95	0x00000000	0.0
96	0x00000000	0.0
97	0x00000000	0.0
98	0x00000000	0.0
99	0x00000000	0.0
100	0x00000000	0.0
101	0x00000000	0.0
102	0x00000000	0.0
103	0x00000000	0.0
104	0x00000000	0.0
105	0x00000000	0.0
106	0x00000000	0.0
107	0x00000000	0.0
108	0x00000000	0.0
109	0x00000000	0.0
110	0x00000000	0.0
111	0x00000000	0.0
112	0x00000000	0.0
113	0x00000000	0.0
114	0x00000000	0.0
115	0x00000000	0.0
116	0x00000000	0.0
117	0x00000000	0.0
118	0x00000000	0.0
119	0x00000000	0.0
120	0x00000000	0.0
121	0x00000000	0.0
122	0x00000000	0.0
123	0x00000000	0.0
124	0x00000000	0.0
125	0x00000000	0.0
126	0x00000000	0.0
127	0x00000000	0.0

model/conv1d_5/Conv1D f4 [128, 1, 3, 64]
0	0x3d968389	0.07349307
1	0xbcb4dbad	-0.022077406
2	0xbd795ea6	-0.06088128
3	0x3d9654e5	0.07340411
4	0xbdc5537e	-0.096350655
5	0x3d9d47e3	0.07679727
6	0xbdc84e04	-0.09780505
7	0xbdb4be4a	-0.08825357
8	0xbdd59c0a	-0.10430153
9	0x3dcbe03e	0.0995488
10	0xbca70d79	-0.020392166
11	0xbd21fe01	-0.039548878
12	0x3c94690c	0.018116497
13	0x3d5080dd	0.050904144
14	0xbd6c5eaf	-0.057707485
15	0x3db7d5f6	0.08976357
16	0xbd60be2d	-0.054868866
17	0xbcd9220d	-0.026505494
18	0x3cf4b265	0.029870221
19	0xbdc2cfe0	-0.09512305
20	0xbdaf6104	-0.08563426
21	0x3d007748	0.031363755
22	0x3d968883	0.07350256
23	0xbd10b824	-0.03533186
24	0xbdd717ab	-0.10502561
25	0x3bdcd8ea	0.0067397254
26	0x3c915aae	0.017743435
27	0x3d5b4d2c	0.053540394
28	0x3d82532a	0.063635185
29	0xbd4ad849	-0.04952267
30	0xbd103a33	-0.035211753
31	0xbdb04277	-0.08606427
32	0xbdade7f3	-0.084915064
33	0x3cc36310	0.023850948
34	0x3d9a4703	0.07533076
35	0x3d72fccc	0.059323117
36	0xbc5886d5	-0.01321574
37	0x3cda3495	0.026636401
38	0xbdcb439c	-0.09925005
39	0xbcff4fc4	-0.031165965
40	0x3d43010c	0.04760842
41	0x3dacf757	0.08445614
42	0xbc8dc6d0	-0.017306715
43	0xbd94ca69	-0.07265169
44	0xbcb99c25	-0.022657463
45	0x3d898bca	0.06716116
46	0x3c22528c	0.009907376
47	0x3d56465d	0.052313197
48	0x3c9e7969	0.019345002
49	0xbd160fef	-0.03663629
50	0x3d1a09bf	0.03760695
51	0xbd2e7560	-0.042592406
52	0x3dcccb4a	0.09999712
53	0x3cf558f8	0.02994965
54	0xbd4373c8	-0.04771784
55	0xbd6983b0	-0.057010353
56	0xbc5736e7	-0.013135648
57	0x3dbe282d	0.09285007
58	0x3baed966	0.0053359745
59	0x3dd7b446	0.10532431
60	0xbd8a1a9f	-0.06743359
61	0xbdccb460	-0.09995341
62	0xbc86907c	-0.016426317
63	0xbd5daf79	-0.054122422
64	0xbd1fb98c	-0.03899531
65	0xbd5fc9bc	-0.05463575
66	0x3cf5bc92	0.029997144
67	0x3d3d2480	0.046177387
68	0x3da8ccfd	0.082422234
69	0xbda15929	-0.07878334
70	0xbdbcced7	-0.09219139
71	0x3d922ed3	0.07137837
72	0x3c609fa8	0.01370994
73	0xbd98579c	-0.07438585
74	0x3d5f4433	0.0545084
75	0x3c09a79c	0.008401778
76	0x3cf3340b	0.029687902
77	0x3cc5a7d8	0.024127886
78	0x3d9e2fc4	0.07723954
79	0xbdc41ade	-0.09575437
80	0xbcef9768	-0.029247
81	0xbccfec75	-0.025381306
82	0xbd603ceb	-0.054745596
83	0xbdc6b53b	-0.09702536
84	0xbd8e3cae	-0.069451675
85	0x3da37331	0.079809554
86	0xbc2fc128	-0.010727204
87	0x3d5f37a1	0.05449641
88	0x3d571974	0.05251451
89	0xbd8a5248	-0.06753975
90	0x3ca17513	0.019709146
91	0xbd4601ba	-0.04834149
92	0x3d84c7bc	0.06483409
93	0x3d04a715	0.032385904
94	0x3d19ad82	0.037518986
95	0xbd8df2e4	-0.06931093
96	0xbdc9acdb	-0.09847423
97	0xbd3a8908	-0.04554084
98	0x3d1383ef	0.036014494
99	0xbd2d8b55	-0.042369206
100	0xbdc3e6fd	-0.09565542
101	0xbd5aa3d5	-0.0533789
102	0xbdc587bf	-0.09645032
103	0xbd2bc622	-0.041937
104	0x3d8b5a64	0.0680435
105	0x3d96d456	0.073647186
106	0xbddc9fda	-0.10772677
107	0x3d90355e	0.07041429
108	0x3bd5e45b	0.0065274662
109	0xbd631d81	-0.05544806
110	0x3d7c8d27	0.06165805
111	0x3c93646a	0.017992217
112	0xbd5eb2fb	-0.054369908
113	0xbdaa7552	-0.08323158
114	0xbdc08ee5	-0.09402255
115	0xbb807f71	-0.003921442
116	0xbc150566	-0.009095525
117	0xbdc99749	-0.098433085
118	0x3d0fdd29	0.035123024
119	0xbcbe8c72	-0.023260329
120	0xbc983dd1	-0.018584164
121	0xbd91be6a	-0.07116397
122	0x3d517c52	0.05114395
123	0x3c123b10	0.008925214
124	0xbaafa1a7	-0.0013399617
125	0x3d441136	0.047867976
126	0xbdc91a62	-0.09819485
127	0xbd321707	-0.04347899
128	0x3daaf653	0.08347764
129	0x3d2ccc90	0.042187274
130	0xbd9ccb45	-0.07655958
131	0xbd8ec481	-0.06971074
132	0x3d0dd3d4	0.034625843
133	0xbb580028	-0.0032959078
134	0x3d5e4de9	0.05427352
135	0xbcf44eda	-0.029822756
136	0xbda3b61f	-0.07993721
137	0xbd829296	-0.06375615
138	0x3d48c4f2	0.049015947
139	0x3d392a16	0.045206152
140	0xbdc0d86a	-0.09416278
141	0xbd319682	-0.043356426
142	0xbd51cd75	-0.05122133
143	0x3d2eae2f	0.042646583
144	0xbca808d5	-0.020512024
145	0x3d854cd0	0.065087914
146	0x3d4a275f	0.049353953
147	0xbb82d4d4	-0.0039926562
148	0xbd4299c1	-0.047509912
149	0x3d7c4d6b	0.06159727
150	0xbd86ebc8	-0.065879405
151	0xbd04fa52	-0.032465287
152	0xbc1e5a7a	-0.009665126
153	0x3d9b0237	0.07568782
154	0x3da6e20b	0.08148583
155	0x3da682b8	0.081304014
156	0x3db40bb5	0.087912954
157	0xbdc82021	-0.09771753
158	0xbcf9208e	-0.030411031
159	0x3d643839	0.05571768
160	0xbdba8c33	-0.09108772
161	0xbb806e45	-0.003919395
162	0xbd2f37c0	-0.042777777
163	0x3c6c2496	0.01441302
164	0x3d551b08	0.052027732
165	0x3dcb267c	0.0991945
166	0xbdc1362d	-0.09434161
167	0x3d3a7150	0.04551822
168	0x3d8d346f	0.068947665
169	0xbca7f6cf	-0.02050343
170	0x3daebd7e	0.085322365
171	0xbdd1d52d	-0.10245738
172	0x3da1a7b0	0.07893312
173	0x3d94f6e3	0.072736524
174	0x3bc67d3f	0.006057411
175	0xbc172974	-0.009226192
176	0xbd36e1fc	-0.04464911
177	0xbcc3322e	-0.023827638
178	0x3cca8e44	0.02472604
179	0xbdb22f34	-0.087004095
180	0xbcd46b3d	-0.025930041
181	0x3d92bb42	0.07164623
182	0x3d0557fa	0.032554604
183	0x3d1c0426	0.038089894
184	0xbd365760	-0.04451692
185	0x3ddda01b	0.10821553
186	0xbc8bc621	-0.017062249
187	0xbd909ab1	-0.07060755
188	0x3d86f33d	0.06589363
189	0xbd5bab83	-0.053630363
190	0x3d832df0	0.06405246
191	0xbc88d29c	-0.016701989
192	0x3da1e2f9	0.0790462
193	0xbdce0941	-0.10060359
194	0x3d726552	0.059178658
195	0xbdcb2472	-0.09919061
196	0x3bcf3046	0.0063228933
197	0x3d6a78a4	0.057243958
198	0xbcae0ceb	-0.021246394
199	0x3d2a4be7	0.041576292
200	0xbd7bb1ec	-0.061448976
201	0x3c781cf7	0.0151436245
202	0xbcb025a8	-0.02150233
203	0xbc596b3c	-0.013270196
204	0xbc96df72	-0.018417094
205	0x3cdbcc0b	0.026830694
206	0x3d076399	0.033053968
207	0xbb4a6778	-0.0030884426
208	0x3da7c783	0.08192351
209	0xbd8a0a16	-0.06740205
210	0x3d856157	0.06512707
211	0xbcc56a17	-0.02409844
212	0xbdb37354	-0.087622315
213	0x3d7488b5	0.059700686
214	0x3d935af1	0.0719508
215	0xbce12a8f	-0.027486114
216	0x3c4ee60b	0.012628089
217	0xbdcd427a	-0.10022445
218	0xbcca0eb1	-0.024665209
219	0xbd1a7f71	-0.037719194
220	0x3d8b6a9a	0.06807442
221	0x3c4c9465	0.012486552
222	0xbd5bb904	-0.05364324
223	0xbd8eddf3	-0.06975927
224	0x3cef9c8a	0.029249448
225	0xbc7659db	-0.015036072
226	0xbda22061	-0.07916332
227	0xbd554824	-0.05207075
228	0x3dbba36c	0.091620296
229	0x3d4f8fb6	0.050674163
230	0x3dac8b28	0.084249794
231	0x3d5c06f1	0.053717557
232	0xbd27ba45	-0.040949125
233	0xbddc3916	-0.10753076
234	0xbdcf5b3e	-0.10124825
235	0x3c7a29cb	0.015268753
236	0xbb3970c6	-0.0028295978
237	0xbd974fad	-0.07388244
238	0xbc82b968	-0.01595755
239	0x3cb41a8e	0.021985319
240	0x3dc09c8d	0.0940486
241	0xbd011a70	-0.031519353
242	0xbc994523	-0.018709725
243	0xbd5233de	-0.051318996
244	0x3d8fd960	0.07023883
245	0x3c4330ab	0.011913459
246	0xbd696f7c	-0.056991085
247	0xbb354681	-0.0027660432
248	0xbce8790f	-0.028378038
249	0xbdd7ff18	-0.10546702
250	0xbd82c1bb	-0.063846074
251	0xbcdf1478	-0.02723144
252	0xbc919ceb	-0.01777502
253	0xbc51175a	-0.012761915
254	0xbdd1857b	-0.102305375
255	0x3ca9da4f	0.02073398

model/conv1d/Conv1D1 f4 [32, 1, 3, 3]
0	0x3df9cc1f	0.12197136
1	0x3c6a6037	0.014305166
2	0xbe08b768	-0.13351214
3	0x3e7d5ccb	0.24742429
4	0x3e47ad12	0.19499615
5	0xbe149873	-0.1451128
6	0x3ab672bf	0.0013919695
7	0x3e171e30	0.1475761
8	0xbe346375	-0.17616065
9	0xbc869f53	-0.016433394
10	0x3e0fac38	0.1403054
11	0xbd907146	-0.07052855
12	0xbd274efb	-0.040846806
13	0xbdf34322	-0.11878039
14	0x3d483e52	0.04888756
15	0xbc9ea0ae	-0.019363727
16	0xbd8cc950	-0.06874335
17	0xbe467ec1	-0.1938429
18	0x3df56491	0.11982072
19	0xbe0831e5	-0.13300283
20	0x3dd31f4b	0.10308703
21	0xbd7e5190	-0.062089503
22	0xbd7c3d7c	-0.061582074
23	0x3d8ea1c0	0.06964445
24	0x3cf787f2	0.030216191
25	0x3e3ffc92	0.18748692
26	0xbe25d1ac	-0.16193265
27	0xbdc4f59e	-0.0961716
28	0xbd87bf0e	-0.06628238
29	0x3e268946	0.16263303
30	0xbe3656dd	-0.17806573
31	0xbd4b3651	-0.049612347
32	0x3e29e597	0.16591488
33	0xbe2d949b	-0.1695122
34	0x3ded3c35	0.11583749
35	0x3d9b5719	0.07584972
36	0x3e0e2a57	0.13883339
37	0xbe4ff625	-0.2030874
38	0xbe2f6ffb	-0.17132561
39	0xbd2ed8fc	-0.0426874
40	0xbd4bebb4	-0.04978533
41	0xbe1b1450	-0.15144467
42	0xbe20baaf	-0.15696214
43	0x3e55732e	0.20844719
44	0x3dac78b3	0.08421459
45	0xbe61c38e	-0.22047254
46	0xbdffa83f	-0.12483262
47	0x3e3da8dd	0.18521447
48	0xbe2e805a	-0.1704115
49	0x3e491525	0.19636972
50	0x3ddd4c71	0.10805596
51	0xbdaa0a5e	-0.08302759
52	0x3cfd4fb4	0.030921794
53	0x3e014a02	0.12625888
54	0x3e45ec42	0.19328406
55	0xbcf0451f	-0.029329835
56	0x3e2c4cd0	0.16826177
57	0x3d858133	0.065187834
58	0x3e0436c6	0.1291152
59	0x3b430b30	0.0029761307
60	0xbdd0eacd	-0.10201035
61	0xbc43e26e	-0.0119558405
62	0xbcedeaf3	-0.029042697
63	0xbde2b4fb	-0.110696755
64	0xbe2ab456	-0.16670355
65	0x3d6b6b95	0.057475645
66	0xbdba4172	-0.09094514
67	0xbe2ae261	-0.16687919
68	0xbc7f6e58	-0.015590273
69	0xbe768d85	-0.24077423
70	0x3e3001ef	0.17188238
71	0xbe675131	-0.22589566
72	0x3cdda00c	0.027053855
73	0x3e60fe74	0.21972066
74	0x3e2afa77	0.16697107
75	0xbdba9f1c	-0.09112379
76	0x3ca9b1c4	0.020714648
77	0xbe18e467	-0.14930879
78	0x3dfc9814	0.12333694
79	0xbe0eba65	-0.13938291
80	0x3dd8882a	0.10572846
81	0x3d34e74f	0.044165906
82	0x3e280bee	0.16410801
83	0x3e2640e9	0.16235699
84	0xbe22118b	-0.15827005
85	0xbd4fd7d6	-0.050742947
86	0x3e177e36	0.1479424
87	0x3e25fbbf	0.16209315
88	0xbd98ccd1	-0.07460941
89	0xbd57220d	-0.052522708
90	0x3df3dffa	0.119079545
91	0xbd84c21c	-0.06482336
92	0xbe389a50	-0.18027616
93	0xbd263a3f	-0.04058289
94	0x3cb8ae94	0.022544183
95	0xbd918a76	-0.071064875
96	0x3e705ce0	0.23472929
97	0xbdf9548b	-0.121743284
98	0x3c1ee0ce	0.009697152
99	0xbdf53124	-0.119722635
100	0x3df7e1cd	0.12103615
101	0xbe16d896	-0.14731058
102	0x3cd5443b	0.026033511
103	0xbd0d197e	-0.03444814
104	0x3d7e19f0	0.062036455
105	0x3c99b74e	0.018764164
106	0x3cd4357e	0.025904413
107	0x3e0f5780	0.13998222
108	0x3df3a67e	0.1189699
109	0xbd839abf	-0.06426
110	0x3e598b2e	0.21244499
111	0xbdb7df18	-0.08978099
112	0x3e2685a3	0.16261916
113	0xbdb15cc6	-0.08660273
114	0xbcdd906f	-0.02704641
115	0x3e1e9e44	0.15490061
116	0xbe23761b	-0.15963022
117	0xbe2d1f3f	-0.1690645
118	0xbb53e6a1	-0.003233351
119	0x3ce24068	0.027618602
120	0x3c6f97d3	0.0146236
121	0xbe605be3	-0.21910052
122	0x3aa60f2f	0.001266932
123	0xbdf650c2	-0.12027122
124	0xbc8f8de8	-0.01752372
125	0xbdf7bb4c	-0.12096271
126	0xbddee04c	-0.10882625
127	0x3cde81ec	0.027161561
128	0x3dbffe9f	0.09374737
129	0xbe45d3b0	-0.19319034
130	0x3e0d8a55	0.138223
131	0xbc309332	-0.010777282
132	0xbe2f3d0f	-0.17113136
133	0xbd6f49dc	-0.058420047
134	0xbe327bb1	-0.17429997
135	0xbdd047cf	-0.101699464
136	0xbe676ac8	-0.22599328
137	0x3e1fab9a	0.15592805
138	0x3e0de22f	0.13855813
139	0xbe72d7af	-0.2371509
140	0xbd2e257c	-0.042516217
141	0xbcd1db45	-0.025617251
142	0xbd129fde	-0.035796992
143	0xbe546f95	-0.2074569
144	0xbe3655c4	-0.17806154
145	0xbe2acfde	-0.16680858
146	0xbe54182c	-0.20712346
147	0x3e3f2ac8	0.18668664
148	0xbe377872	-0.1791704
149	0xbd5e6b28	-0.05430141
150	0x3e64987e	0.22323796
151	0x3e47943f	0.19490145
152	0x3e713627	0.23555814
153	0x3d048621	0.032354478
154	0x3e6aeef0	0.2294271
155	0xbe51fcdd	-0.20506616
156	0x3e0a35c4	0.13497072
157	0x3e481c09	0.19541945
158	0x3e49fda5	0.19725664
159	0xbd8e0d9b	-0.06936189
160	0xbccfa5bc	-0.025347583
161	0x3e2dbf81	0.16967584
162	0xbe2847aa	-0.16433588
163	0x3e5d368a	0.21602836
164	0x3e4b277e	0.19839284
165	0x3e489a18	0.19590032
166	0x3e3a7b26	0.1821104
167	0x3d2aad55	0.04166921
168	0xbdfbb35b	-0.12290069
169	0xbe4b4791	-0.19851519
170	0x3e28d1f3	0.1648634
171	0x3dd549a3	0.10414436
172	0x3d1912d8	0.037371486
173	0x3d3b4054	0.045715645
174	0x3e0fac9b	0.14030688
175	0x3e7dbc0f	0.2477877
176	0x3df407a8	0.11915523
177	0xbcde57a8	-0.027141407
178	0xbdc04e78	-0.09389967
179	0x3da49ecc	0.080381006
180	0x3e52a9a6	0.20572528
181	0x3e2066a1	0.1566415
182	0x3e1ee325	0.15516336
183	0xbd523857	-0.05132326
184	0x3e506e70	0.20354629
185	0xbd9a22b7	-0.075261526
186	0x3d52930a	0.05140976
187	0xbda0ed33	-0.07857742
188	0x3e122aea	0.14274183
189	0xbc9f9796	-0.019481461
190	0xbe1ac113	-0.15112714
191	0xbe23ef49	-0.16009249
192	0xbe42ab20	-0.19010592
193	0x3c29aa80	0.010355592
194	0x3de938ec	0.1138781
195	0x3cdd74b2	0.027033184
196	0x3dc637a5	0.09678582
197	0x3e36853e	0.17824265
198	0xbe20b486	-0.15693864
199	0xbe168047	-0.14697371
200	0xbe448c2a	-0.19194093
201	0x3baa1eac	0.0051916447
202	0xbcdb9f49	-0.026809352
203	0xbdc6f6a2	-0.0971501
204	0x3dcedeae	0.101010665
205	0x3e241a62	0.16025689
206	0x3e3c30c3	0.18377976
207	0xbdefa369	-0.1170109
208	0x3e7188d0	0.23587346
209	0xbd36ea36	-0.044656955
210	0xbc4c172e	-0.012456698
211	0x3e4402be	0.19141671
212	0xbdfa2461	-0.1221397
213	0x3e4e8ffe	0.20172116
214	0x3b9202c8	0.004455898
215	0x3e6dd729	0.23226608
216	0x3e3b33ef	0.1828153
217	0xbd663f2b	-0.056212585
218	0xbe7146a6	-0.23562106
219	0xba421a8b	-0.0007404468
220	0x3e172ffc	0.14764398
221	0x3e4a4a75	0.19754966
222	0xbe2092b9	-0.1568097
223	0x3d4ca851	0.049965207
224	0x3e47e74f	0.19521831
225	0xbe40c6f0	-0.18825889
226	0x3cb150b5	0.02164493
227	0x3e0a13f3	0.13484173
228	0x3e23f0e5	0.16009863
229	0x3e1f980d	0.15585347
230	0x3e5a9a88	0.21348011
231	0x3e5628eb	0.20914046
232	0x3ccaba46	0.024747025
233	0x3b878941	0.004136235
234	0x3cd50566	0.02600355
235	0x3d5b77e3	0.05358113
236	0xbda15cbf	-0.07879018
237	0x3d8f18a4	0.06987122
238	0xbe0dd55c	-0.13850921
239	0xbe2465d6	-0.16054472
240	0x3e08b3c5	0.13349827
241	0x3c9e8740	0.019351602
242	0xbd9a08fe	-0.075212464
243	0xbdf3b15a	-0.118990615
244	0x3d223801	0.03960419
245	0x3e6b504e	0.22979853
246	0xbe332fda	-0.17498723
247	0x3e58cf11	0.2117274
248	0xbe501e72	-0.20324114
249	0x3e263957	0.16232811
250	0x3d254791	0.040351454
251	0x3e67f625	0.2265249
252	0x3be81525	0.0070825987
253	0x3d94531b	0.072424136
254	0xbe6055d3	-0.2190774
255	0x3e634bc4	0.22196871

model/conv1d_1/Conv1D1 f4 [64, 1, 3, 32]
0	0xbdcfcf5d	-0.10146973
1	0x3c06bf76	0.008224359
2	0xbdc72daa	-0.097255066
3	0x3d10c9bc	0.03534864
4	0x3dca4448	0.09876305
5	0x3dbb1e0b	0.091365896
6	0xbd82f9d8	-0.0639531
7	0x3d9eb671	0.07749642
8	0xbd709e78	-0.058744878
9	0xbd7b3efb	-0.06133936
10	0x3c99bcf9	0.018766867
11	0x3e063a10	0.13108087
12	0xbd3d508a	-0.046219386
13	0x3dae7efb	0.08520313
14	0x3ddb619c	0.10711977
15	0x3d3952bd	0.04524492
16	0x3db3f47c	0.08786866
17	0xbd077067	-0.03306618
18	0xbcc5b583	-0.024134403
19	0xbcc9f7ab	-0.02465423
20	0xbd60f00e	-0.054916434
21	0xbe0e801c	-0.13916057
22	0xbc37067e	-0.011170981
23	0x3e065503	0.13118367
24	0xbba4dc26	-0.0050311266
25	0x3e079525	0.13240488
26	0x3df1d94a	0.11809023
27	0xbe058b1d	-0.13041349
28	0xbcc5206c	-0.024063312
29	0x3e028e83	0.12749676
30	0xbcea42d1	-0.028596314
31	0x3d64ed66	0.055890463
32	0x3dd6f6ee	0.10496317
33	0xbda73510	-0.08164418
34	0xbbaa314e	-0.005193866
35	0x3da5f569	0.08103449
36	0x3e1e80a1	0.15478756
37	0x3d33b420	0.043872952
38	0xbd0952c7	-0.03352621
39	0x3dd0c17a	0.10193153
40	0x3db8ea4f	0.09029066
41	0x3df432bd	0.1192374
42	0xbe06511d	-0.1311688
43	0x3d3b4856	0.04572328
44	0x3d892534	0.06696549
45	0x3d8df1db	0.06930896
46	0xbdaf15c5	-0.08549074
47	0xbd655d5b	-0.055997234
48	0xbcd60e4e	-0.026129868
49	0x3c4c7baa	0.012480656
50	0xbc62ca8c	-0.013842236
51	0xbd1261e8	-0.035737902
52	0x3d3aa739	0.045569632
53	0x3dea2e13	0.11434569
54	0xbda05ebe	-0.07830571
55	0xbd29be31	-0.041441146
56	0x3d169d4d	0.036771107
57	0x3dbe4d76	0.09292118
58	0xbdf5dd8e	-0.12005149
59	0x3df2c0be	0.11853169
60	0xbe03a42f	-0.128556
61	0xbc96f091	-0.018425258
62	0xbd9a8655	-0.07545153
63	0x3d97c9ab	0.07411512
64	0x3e149c29	0.14512695
65	0xbd4d3c85	-0.050106544
66	0xbdaa7ea6	-0.083249375
67	0xbe14b435	-0.14521869
68	0xbe112cf5	-0.14177306
69	0xbd8ffb5e	-0.07030366
70	0xbdb7d2af	-0.089757316
71	0x3df01ae3	0.11723878
72	0x3d68f730	0.05687636
73	0x3c50f3f9	0.01275348
74	0x3d850a99	0.06496162
75	0xbb793ac8	-0.003802942
76	0xbd8cdc48	-0.06877953
77	0x3e04cf02	0.12969592
78	0xbd91a245	-0.071110286
79	0x3dc6c41b	0.09705373
80	0x3cbef45c	0.023309879
81	0xbd9bcacb	-0.07607039
82	0xbdc3efc4	-0.09567216
83	0x3d0b6d0d	0.034039546
84	0x3d5b3063	0.053512942
85	0xbd46f27a	-0.048571087
86	0x3dcac956	0.09901683
87	0x3e2bdae4	0.16782719
88	0x3d4ac538	0.04950449
89	0xbdfbcbf5	-0.12294761
90	0x3c4c8c96	0.01248469
91	0xbd854708	-0.06507689
92	0xbde4a021	-0.11163355
93	0xbd1ed57e	-0.03877782
94	0x3e1c358e	0.15254804
95	0x3cea3335	0.02858887
96	0xbdb69e03	-0.08916857
97	0x3af8b170	0.0018973779
98	0xbe14ba99	-0.14524306
99	0x3df643ac	0.12024626
100	0x3dda5ce0	0.10662246
101	0x3de7876b	0.11305126
102	0xbdaefa0a	-0.08543785
103	0x3b7aa917	0.0038247758
104	0xbdb6922c	-0.08914599
105	0xba9e74f1	-0.0012089295
106	0x3d9dc229	0.07703049
107	0x3c4c9768	0.01248727
108	0xbd569f18	-0.052397817
109	0x3def3bd7	0.116813354
110	0x3e1928ce	0.14956972
111	0xbc8f15eb	-0.017466506
112	0x3d638fe1	0.055557135
113	0x3cc2c4d6	0.0237755
114	0x3a6b69ba	0.0008980293
115	0xbc40816a	-0.011749605
116	0xbd9b7d13	-0.075922154
117	0x3d982114	0.07428184
118	0xbdcc6352	-0.09979881
119	0x3e022928	0.12711012
120	0xbdeee265	-0.11664275
121	0xbd8ba42b	-0.06818422
122	0xbd5c76f7	-0.05382439
123	0xbd11d645	-0.035604734
124	0xbd3aa275	-0.045565087
125	0x3dc9faee	0.09862314
126	0xbdc4b277	-0.09604352
127	0xbe00d3e9	-0.12580837
128	0x3e0efffe	0.13964841
129	0xbe0fb074	-0.14032155
130	0x3d9e95d7	0.077434234
131	0x3ddeb223	0.10873821
132	0xbddf6e9d	-0.1090977
133	0x3dde07a3	0.108413
134	0xbce9b9e9	-0.028531032
135	0x3da6e4f2	0.081491366
136	0xbd4270a9	-0.047470722
137	0xbc518b74	-0.012789596
138	0xbcbf469a	-0.023349095
139	0xbd2be12c	-0.041962788
140	0xbd35ec57	-0.044414844
141	0xbdbe1939	-0.092821546
142	0xbda6007c	-0.08105561
143	0xbe0aa1c6	-0.13538274
144	0x3de7b769	0.113142796
145	0x3c01fdba	0.007934028
146	0x3e07b096	0.13250956
147	0x3d8696eb	0.06571754
148	0x3cc6bdc6	0.024260413
149	0x3e025533	0.12727813
150	0xbcc1b4e0	-0.023645818
151	0xbd82a8ab	-0.06379827
152	0xbbffd401	-0.0078072553
153	0xbd6ba14c	-0.05752687
154	0xbc27c555	-0.010239919
155	0x3dc97cb2	0.09838237
156	0xbcccf081	-0.025017025
157	0xbc2dc8bf	-0.010606944
158	0x3dbdc53c	0.09266135
159	0x3d8fec94	0.070275456
160	0xbd15e3e9	-0.036594305
161	0xbe0e4beb	-0.13896148
162	0xbde25219	-0.11050815
163	0x3da3788c	0.07981977
164	0xbdfe7740	-0.12425089
165	0xbd9a62d2	-0.0753838
166	0xbc218439	-0.0098581845
167	0x3cc5eb7d	0.024160141
168	0xbe06c502	-0.1316109
169	0x3e019b2b	0.12656848
170	0x3d60099a	0.054696657
171	0x3d7e3acb	0.062067788
172	0x3e05b0e7	0.13055764
173	0xbd9e2aac	-0.07722983
174	0x3d495dbf	0.04916167
175	0xbdbdee73	-0.09273996
176	0xbe06701b	-0.13128702
177	0xbc999b35	-0.018750766
178	0xbd976a55	-0.07393328
179	0x3e02e1c8	0.12781441
180	0x3d2262f8	0.039645165
181	0x3e142ec1	0.1447096
182	0x3e106f72	0.14105013
183	0x3d52b405	0.05144121
184	0xbd8281b1	-0.06372393
185	0xbd60a832	-0.054847904
186	0xbd7548eb	-0.059883993
187	0x3d654291	0.055971686
188	0xbe01d159	-0.12677516
189	0x3d02ab9c	0.03190194
190	0x3dac832b	0.08423456
191	0x3bcfe13e	0.0063439896
192	0xbd958ff7	-0.0730285
193	0xbc9ca2fd	-0.019120688
194	0x3bde6a6a	0.006787588
195	0x3d1dca54	0.038523033
196	0xbe0e3957	-0.13889061
197	0x3dc9454f	0.09827673
198	0x3da21962	0.07914998
199	0xbe14e707	-0.14541255
200	0xbdb45641	-0.08805514
201	0x3d9aca30	0.075580955
202	0xbe09b033	-0.13446121
203	0x3e139ed8	0.14416063
204	0xbe14dffb	-0.14538567
205	0xbc46a36e	-0.012123926
206	0xbdb255b0	-0.0870775
207	0x3d82cfb3	0.06387272
208	0x3de58754	0.112074524
209	0xbdaa9d56	-0.08330791
210	0xbd8be0ce	-0.068299875
211	0xbd6b8cb1	-0.05750722
212	0x3d6db395	0.05803259
213	0x3d9a8ddc	0.07546589
214	0xbda5b65f	-0.08091425
215	0x3dc80f0f	0.09768497
216	0x3de01a5e	0.10942529
217	0x3c06b573	0.008221972
218	0xbc21710a	-0.009853611
219	0x3d42a6f7	0.04752251
220	0x3c051241	0.008122028
221	0x3dddcc4a	0.10829981
222	0xbcaae56e	-0.020861354
223	0xbc930aec	-0.017949544
224	0xbd6d9cfc	-0.05801104
225	0xbd49b9e3	-0.04924954
226	0xbdee7235	-0.11642877
227	0x3d998cb8	0.07497543
228	0x3bfaebb3	0.007657492
229	0xbdb689e0	-0.08913016
230	0x3e147e79	0.1450137
231	0x3d622a23	0.055215966
232	0xbd35e7d6	-0.04441055
233	0xbd7f232d	-0.062289406
234	0xbe0b5983	-0.13608365
235	0xbdc94d8a	-0.098292425
236	0x3ceb76a0	0.028743088
237	0xbdcbd23d	-0.09952209
238	0xbd701968	-0.05861798
239	0x3acf813f	0.0015831365
240	0x3c6a2427	0.014290846
241	0xbceecdfb	-0.029150954
242	0x3d6a0a11	0.057138506
243	0xbde5e4ed	-0.11225305
244	0xbe0285b8	-0.12746322
245	0x3d38277d	0.044959534
246	0xbd83cef3	-0.06435957
247	0x3df815b4	0.121135145
248	0xbd1518f5	-0.036400754
249	0xbd3f50be	-0.04670786
250	0xbcfae620	-0.03062731
251	0x3df73e2f	0.120724075
252	0x3dc7d8af	0.09758126
253	0x3c31ad8c	0.010844599
254	0xbe10c422	-0.14137319
255	0x3de4f7c8	0.11180073

model/conv1d_2/Conv1D1 f4 [128, 1, 3, 64]
0	0xbda126a9	-0.07868702
1	0x3d92373f	0.071394436
2	0xbda41849	-0.080124445
3	0x3d262c70	0.040569723
4	0x3d539ba3	0.0516621
5	0x3dd4dea3	0.10394027
6	0x3d88accf	0.066735856
7	0x3d27e5c9	0.040990625
8	0x3da58f3c	0.080839604
9	0x3d4ffa54	0.05077584
10	0xbd354eaf	-0.04426449
11	0x3dc0fd81	0.09423352
12	0x3d35d1e9	0.04438964
13	0x3d113d36	0.035458766
14	0xbd07d95b	-0.03316627
15	0x3d89ee61	0.0673492
16	0xbd152f71	-0.036422197
17	0xbd119b78	-0.035548657
18	0xbdc69988	-0.096972525
19	0x3d2622b5	0.040560443
20	0xbd0055da	-0.031331874
21	0xbd67efd9	-0.05662522
22	0x3dcfc8c8	0.10145718
23	0xbccfebe3	-0.025381034
24	0x3cf227e4	0.029560037
25	0xbda26f4b	-0.07931384
26	0xbdd44610	-0.10364926
27	0xbc80679c	-0.015674405
28	0x3d2fafe9	0.04289237
29	0xbd8e956d	-0.069620945
30	0x3d9d964f	0.07694685
31	0xbbf50158	-0.007476967
32	0x3d88f489	0.066872664
33	0xbd9d756f	-0.07688414
34	0x3cdad998	0.026715085
35	0x3d029192	0.031877108
36	0xbd6dfa06	-0.05809977
37	0x3d9ea5a3	0.077464364
38	0x3cd71da7	0.026259257
39	0xbbcffe9f	-0.006347492
40	0x3caca6de	0.021075662
41	0x3dd93c6d	0.106072284
42	0x3daab403	0.08335116
43	0x3bc8ba93	0.006125757
44	0xbd6b39b2	-0.05742807
45	0x3d404278	0.04693839
46	0x3d7f2445	0.06229045
47	0xbc48e4bd	-0.012261567
48	0xbd767dfa	-0.060178734
49	0x3be48e76	0.0069749905
50	0x3c0b92c4	0.008518878
51	0xbc9847ca	-0.01858892
52	0x3c875b20	0.016522944
53	0xbd18d09c	-0.03730832
54	0xbd59bed5	-0.053160507
55	0x3bb86ae0	0.005627975
56	0xbd809672	-0.06278695
57	0x3dd915f8	0.10599893
58	0xbdb7cd7e	-0.089747414
59	0xbcfdc858	-0.03097932
60	0x3d0a321b	0.03373919
61	0xbdd0066c	-0.10157475
62	0x3d8894b8	0.06668991
63	0xbd8b2990	-0.06795037
64	0x3d87f49a	0.06638451
65	0x3c997dd2	0.018736754
66	0x3d907986	0.07054429
67	0x3da8ecec	0.08248314
68	0x3d2df242	0.042467363
69	0x3d6f8523	0.05847658
70	0xbdc9b395	-0.09848706
71	0x3dd5447e	0.104134545
72	0x3d274783	0.040839683
73	0x3d232c0f	0.03983694
74	0xbcae001b	-0.021240285
75	0x3d905a99	0.0704853
76	0xbd3a2638	-0.045446604
77	0xbdb21eda	-0.08697291
78	0x3db75411	0.08951581
79	0x3c10cbc9	0.008837649
80	0x3d885ed8	0.06658715
81	0xbd97c4ab	-0.07410558
82	0xbbb78c2d	-0.005601427
83	0x3dde5e15	0.108577885
84	0xbdb084eb	-0.08619102
85	0xbbcd223c	-0.0062601846
86	0x3c982af7	0.018575175
87	0xbca4bc01	-0.020109178
88	0x3d3f23d7	0.04666504
89	0x3c876a1a	0.016530085
90	0xbce523f9	-0.027971255
91	0xbc434d3e	-0.011920271
92	0xbcb50352	-0.02209631
93	0x3b90670e	0.0044068163
94	0xbba372f8	-0.0049880706
95	0x3cba4de9	0.022742229
96	0xbd253b6e	-0.04033988
97	0xbdba69f2	-0.09102239
98	0x3d186e41	0.03721452
99	0x3d79df1f	0.0610038
100	0xbd7080ee	-0.058716707
101	0xbc1e1bc8	-0.009650178
102	0xbddc0c72	-0.10744561
103	0xbd9fd150	-0.07803595
104	0x3ca821eb	0.020523986
105	0xbdb5cb36	-0.0887665
106	0x3d3fc877	0.046822038
107	0x3d971671	0.07377327
108	0xbde6462e	-0.112438545
109	0x3dc80afc	0.0976772
110	0xbcfc81a6	-0.03082354
111	0x3d8bdceb	0.06829246
112	0xbca34bb5	-0.01993356
113	0xbdba332a	-0.0909179
114	0xbd9938fc	-0.07481572
115	0xbd91d068	-0.071198285
116	0xbd9fd700	-0.0780468
117	0x3cdf05b3	0.027224397
118	0x3dc9b2fb	0.09848591
119	0x3d8b1e74	0.06792918
120	0x3ccee17b	0.025254002
121	0x39e50681	0.0004368313
122	0xbd9fed32	-0.07808913
123	0xbdb6cd27	-0.089258485
124	0xbd0ed25a	-0.034868576
125	0x3cd3c482	0.025850538
126	0xbd8da3ce	-0.06916009
127	0xbc13cc71	-0.009020911
128	0xbbbce21e	-0.00576426
129	0x3d5b92fc	0.053606972
130	0x3d85e2b4	0.06537381
131	0x3d87c469	0.06629259
132	0xbbd7edab	-0.0065896115
133	0xbd027f89	-0.03185991
134	0xbce254e0	-0.027628362
135	0xbd82d32d	-0.06387935
136	0xbc0d983c	-0.008642253
137	0xbda1cec8	-0.079007685
138	0x3d5204bc	0.051274046
139	0xbd06817a	-0.032838322
140	0x3dadd316	0.08487527
141	0x3d7a2512	0.06107051
142	0xbcb4316c	-0.021996222
143	0xbdd036ec	-0.101667255
144	0xbd8abeb3	-0.06774654
145	0xbd939485	-0.07206062
146	0xbdd0dbc4	-0.10198167
147	0xbdb32aa4	-0.087483674
148	0xbc70fca8	-0.014708675
149	0xbdbf03b3	-0.093268774
150	0xbd4c55e7	-0.04988661
151	0xbbab80cb	-0.005233859
152	0x3d14cd10	0.036328375
153	0x3d28e3cb	0.041232865
154	0xbd3ab3f9	-0.04558179
155	0xbdc9491d	-0.098283984
156	0xbd8db0b7	-0.06918471
157	0x3dcba2f4	0.0994319
158	0xbd7a02d6	-0.06103786
159	0x3d85d64e	0.06535016
160	0x3d790d46	0.060803674
161	0xbdb455d1	-0.08805431
162	0xbca77384	-0.020440824
163	0xbd6d7dc5	-0.05798127
164	0x3c121b14	0.008917589
165	0xbd84aaa9	-0.06477863
166	0xbdb935c7	-0.0904346
167	0xbc133ab3	-0.008986163
168	0xbd5880c4	-0.052857175
169	0xbd144570	-0.036199033
170	0xbdb5b813	-0.08873
171	0x3d3f2c76	0.04667326
172	0x3cec9e76	0.028884154
173	0x3c9bd330	0.0190216
174	0xbd82efec	-0.06393418
175	0xbd00e038	-0.03146383
176	0xbd4b30d2	-0.049607106
177	0xbc94710f	-0.018120317
178	0x3db8fda7	0.09032755
179	0xbd6759c6	-0.0564821
180	0x3d9e2586	0.07722001
181	0xbd9701ab	-0.07373365
182	0x3dd23111	0.10263265
183	0xbc4591a9	-0.012058654
184	0x3d3408d2	0.043953724
185	0x3cb87023	0.022514408
186	0xbd076f0f	-0.033064898
187	0xbdd3fb0f	-0.1035062
188	0x3d9e9629	0.077434845
189	0x3d22689b	0.03965054
190	0xbda5cbce	-0.08095513
191	0x3d94c415	0.07263962
192	0xbda76066	-0.081726834
193	0x3ce71721	0.02820927
194	0xbca890ff	-0.020576952
195	0xbb305133	-0.0026903867
196	0xbdc3b0b3	-0.09555187
197	0xbdaaa671	-0.083325274
198	0xbd37031f	-0.04468071
199	0xbdab2463	-0.083565496
200	0x3b8250e6	0.003976929
201	0xbdc6a8e7	-0.09700184
202	0x3d8c7e1e	0.068599924
203	0xbb9d34a3	-0.0047975346
204	0x3da8de62	0.08245541
205	0x3dda28c3	0.10652306
206	0x3cb7d5c0	0.022440791
207	0x3dde1dcb	0.10845526
208	0x3d09e1ca	0.033662595
209	0xbd8d4b84	-0.06899169
210	0x3d060192	0.03271634
211	0x3dcb25cb	0.09919318
212	0xbc01afc7	-0.007915444
213	0x3d411297	0.04713687
214	0xbd76bd59	-0.06023917
215	0x3d815f7f	0.063170426
216	0x3c93e6ec	0.018054448
217	0xbd6581dc	-0.056032047
218	0xbd288206	-0.041139625
219	0x3cffdb0e	0.031232383
220	0x3c1a1d23	0.009406361
221	0xbd8c8ee2	-0.0686319
222	0x3b8b1ff8	0.0042457543
223	0x3db4ce9d	0.08828471
224	0xbd298e49	-0.04139546
225	0xbcd2b7a5	-0.025722334
226	0x3dd75c03	0.10515597
227	0xbddc31ae	-0.10751663
228	0x3abf4b51	0.001459459
229	0x3cf0aeae	0.029380169
230	0xbd038379	-0.032107804
231	0x3d44aca3	0.0480162
232	0xbd74b769	-0.059745226
233	0xbc8c28f6	-0.017109375
234	0x3c86848c	0.016420625
235	0xbd99ad73	-0.07503786
236	0x3d836037	0.06414836
237	0xbd83a17f	-0.06427287
238	0x3d00b865	0.031425852
239	0x3cacc128	0.021088198
240	0xbdc9b648	-0.098492205
241	0xbd6026e9	-0.054724608
242	0xbcfb8275	-0.030701855
243	0x3d8da03b	0.06915327
244	0xba91c099	-0.0011120021
245	0x3d61d462	0.055134185
246	0xbcc00b12	-0.023442779
247	0xbd2585ea	-0.040410914
248	0x3d0a770c	0.03380494
249	0xbc344156	-0.011001905
250	0xbd8db6b0	-0.069196105
251	0xbcd75fcc	-0.026290797
252	0xbcfecd3e	-0.031103726
253	0x3dade1cd	0.08490334
254	0xbaa8af59	-0.001286964
255	0x3da0cf9e	0.078521

model/batch_normalization/batchnorm/sub f4 [32]
0	0xbd4d2a28	-0.05008903
1	0xbdcd027c	-0.100102395
2	0xbd0591fe	-0.032609932
3	0xbd677db2	-0.056516357
4	0xbd510c16	-0.051036917
5	0xbda70a7e	-0.08156298
6	0xbdb2930e	-0.08719455
7	0xbd16fc27	-0.036861565
8	0xbd513962	-0.051080115
9	0xbd373e03	-0.044736873
10	0xbd9da631	-0.07697714
11	0xbd9879f2	-0.07445134
12	0xbcfc8c75	-0.030828694
13	0xbd28afdd	-0.04118334
14	0xbd54c7fa	-0.051948525
15	0xbcf8cdf7	-0.03037165
16	0xbd47c28c	-0.04876952
17	0xbd10b55e	-0.035329215
18	0xbd96fbdd	-0.07372258
19	0xbd42c476	-0.04755064
20	0xbd5a64b8	-0.05331871
21	0xbde9b634	-0.114117056
22	0xbd17277c	-0.03690289
23	0xbd93f204	-0.07223895
24	0xbcff9e3f	-0.031203387
25	0xbda31567	-0.079630665
26	0xbd4ea70a	-0.05045227
27	0xbdbd8c20	-0.09255242
28	0xbd3c3439	-0.04594824
29	0xbd21974b	-0.039450925
30	0xbcf7a56e	-0.03023025
31	0xbd4d72de	-0.050158374

model/batch_normalization/batchnorm/mul f4 [32]
0	0x403d7402	2.9602056
1	0x409a59a2	4.8234415
2	0x408f3935	4.4757333
3	0x407fcf39	3.9970229
4	0x402c3459	2.690695
5	0x405e8bc8	3.4772816
6	0x409ba296	4.863597
7	0x403b6269	2.9278815
8	0x40641866	3.5639892
9	0x40619601	3.5247805
10	0x40749daf	3.8221242
11	0x409a35ab	4.8190513
12	0x406e2ca2	3.7214742
13	0x4084aaac	4.145834
14	0x405a5c72	3.4118924
15	0x403a385b	2.9096897
16	0x401291d4	2.2901506
17	0x40309e1e	2.7596507
18	0x4047aa5b	3.1197727
19	0x407f760f	3.9915807
20	0x4066e8d6	3.6079612
21	0x4054a063	3.3222892
22	0x403de788	2.9672565
23	0x403f6674	2.9906282
24	0x402b23e1	2.6740649
25	0x40556090	3.3340187
26	0x408e89a1	4.4543004
27	0x40462461	3.0959704
28	0x40808850	4.0166397
29	0x403ca3b6	2.9474921
30	0x405b6c84	3.4284983
31	0x406bd0fc	3.6846304

model/batch_normalization_5/batchnorm/sub f4 [128]
0	0xbf51b385	-0.8191455
1	0xbf3cc5a1	-0.7373906
2	0xbf429141	-0.7600289
3	0xbf23fc34	-0.64056706
4	0xbf42f984	-0.7616198
5	0xbf949497	-1.1607846
6	0xbf7fdf25	-0.99949867
7	0xbf903cc2	-1.1268542
8	0xbf4d6e47	-0.80246395
9	0xbf7b626c	-0.98197055
10	0xbf415039	-0.75513035
11	0xbf45a9bf	-0.77212137
12	0xbf7f96d5	-0.99839526
13	0xbf834e12	-1.02582
14	0xbf33f4c3	-0.7029535
15	0xbf830e85	-1.0238806
16	0xbf38a7bb	-0.72130936
17	0xbf3abe3c	-0.72946525
18	0xbf40cf25	-0.7531608
19	0xbf5f37f5	-0.8719476
20	0xbfa155e8	-1.2604342
21	0xbf4e6bff	-0.8063354
22	0xbf7fb035	-0.99878246
23	0xbf86d0cb	-1.0532469
24	0xbf980056	-1.1875103
25	0xbfae739f	-1.3629035
26	0xbf87154d	-1.0553375
27	0xbfb72d27	-1.4310654
28	0xbe05db26	-0.1307188
29	0xbf41f58c	-0.757653
30	0xbf36cdff	-0.71408075
31	0xbf6d0511	-0.92585856
32	0xbf832ab6	-1.0247409
33	0xbf9e7d1e	-1.2381933
34	0xbf87c320	-1.0606422
35	0xbf8b6383	-1.0889744
36	0xbf8b22df	-1.0870017
37	0xbf311206	-0.69168127
38	0xbf6c8a30	-0.9239836
39	0xbf9084fb	-1.1290582
40	0xbf5afa9e	-0.8553866
41	0xbf68746a	-0.90802634
42	0xbf7ece1c	-0.9953325
43	0xbf220360	-0.632864
44	0xbf86441f	-1.0489539
45	0xbf80ef42	-1.0073016
46	0xbf5eb64e	-0.86996925
47	0xbf4851ea	-0.7824999
48	0xbf3b689c	-0.73206496
49	0xbf44cd04	-0.7687533
50	0xbf850cac	-1.0394492
51	0xbf2a0c49	-0.66424996
52	0xbf6089ea	-0.8771044
53	0xbf856847	-1.0422448
54	0xbf3a67ee	-0.72814834
55	0xbf34f36a	-0.7068392
56	0xbf82ed56	-1.0228679
57	0xbf38bab2	-0.72159874
58	0xbf80abf5	-1.0052477
59	0xbf7fb5f7	-0.9988703
60	0xbf313d82	-0.6923448
61	0xbfa0080b	-1.2502455
62	0xbf20b6a2	-0.62778676
63	0xbe1ea2f9	-0.15491857
64	0xbe5bdfd8	-0.21472108
65	0xbf291b3c	-0.6605718
66	0xbf3f2264	-0.7466185
67	0xbf2e9193	-0.6819088
68	0xbf8266d9	-1.0187637
69	0xbf32fbf9	-0.6991573
70	0xbf03536f	-0.51299185
71	0xbf143583	-0.5789415
72	0xbf883bc0	-1.0643234
73	0xbf651d75	-0.8949807
74	0xbf534b6b	-0.82536954
75	0xbf5fb9d2	-0.87392914
76	0xbf821fe3	-1.0165981
77	0xbe72506d	-0.23663493
78	0xbf2bf13c	-0.6716497
79	0xbe180f23	-0.14849524
80	0xbf882957	-1.0637616
81	0xbf43a61d	-0.76425344
82	0xbf9ba692	-1.2160208
83	0xbf870422	-1.0548136
84	0xbf80b01e	-1.0053747
85	0xbf494b14	-0.78630185
86	0xbf451e57	-0.7699942
87	0xbf69c5df	-0.9131755
88	0xbf9b8309	-1.2149364
89	0xbfa491ee	-1.2857034
90	0xbf56564e	-0.8372544
91	0xbf884a6e	-1.0647714
92	0xbe1e8de6	-0.15483817
93	0xbfa281b9	-1.2695838
94	0xbf76a35e	-0.9634303
95	0xbf9e9ce1	-1.2391626
96	0xbf7194a9	-0.9436746
97	0xbf33a824	-0.7017844
98	0xbf2c88d8	-0.67396307
99	0xbf8beea1	-1.0932199
100	0xbf52108a	-0.82056487
101	0xbf639d77	-0.8891215
102	0xbf2e7089	-0.68140465
103	0xbf9dece3	-1.2337917
104	0xbe9a0d31	-0.3008819
105	0xbf810d8b	-1.0082258
106	0xbf3992d7	-0.72489685
107	0xbf303daf	-0.6884412
108	0xbf1cd437	-0.61261314
109	0xbf381c3a	-0.7191807
110	0xbf3b7577	-0.7322611
111	0xbf419e0c	-0.75631785
112	0xbf59354b	-0.84846944
113	0xbf591c5f	-0.84808916
114	0xbf569424	-0.83819795
115	0xbe7a4087	-0.24438678
116	0xbf93bf0a	-1.1542675
117	0xbf913db7	-1.1346959
118	0xbf934e44	-1.150826
119	0xbf3f4c8a	-0.74726164
120	0xbf844fa4	-1.0336804
121	0xbf810c47	-1.0081872
122	0xbf4ff46c	-0.81232333
123	0xbf3a06ef	-0.7266683
124	0xbf50b4e7	-0.81526035
125	0xbf879660	-1.0592766
126	0xbf404a9c	-0.75113845
127	0xbf44d2c9	-0.7688413

model/batch_normalization_5/batchnorm/mul f4 [128]
0	0x40c04c71	6.009331
1	0x407b6e96	3.9286246
2	0x408934c8	4.287693
3	0x40c100df	6.0313563
4	0x402f91c2	2.7432714
5	0x4083bf37	4.1170917
6	0x40a6bffc	5.2109356
7	0x40470f5a	3.110312
8	0x4030999a	2.759375
9	0x4073a623	3.8070152
10	0x4046aee6	3.104425
11	0x403af731	2.9213374
12	0x402f536e	2.7394671
13	0x40488748	3.133257
14	0x40149a52	2.321919
15	0x401ede2a	2.4823098
16	0x4052ad20	3.2918167
17	0x4048d749	3.13814
18	0x408e0129	4.4376416
19	0x4084b561	4.147141
20	0x4030bd90	2.76157
21	0x408a8770	4.329033
22	0x4035b209	2.8389914
23	0x4071f0e1	3.780327
24	0x40018eac	2.024333
25	0x403cad8c	2.9480925
26	0x4063f311	3.5617106
27	0x401e822f	2.4766958
28	0x3f33651c	0.70076156
29	0x40312808	2.7680683
30	0x401c89a5	2.4459012
31	0x406a6842	3.6626134
32	0x40927337	4.5765643
33	0x406e470d	3.7230866
34	0x4020bcdb	2.5115268
35	0x405552dd	3.3331826
36	0x404d38f5	3.2066014
37	0x400d0dce	2.2039676
38	0x406e53fd	3.7238762
39	0x404ec505	3.230775
40	0x4098f7ec	4.780264
41	0x409e17d8	4.9404106
42	0x407db107	3.96393
43	0x40a54442	5.1645823
44	0x408a930b	4.3304496
45	0x4048f39a	3.1398683
46	0x40b23014	5.568369
47	0x406a8763	3.6645133
48	0x402afa4a	2.6715264
49	0x401dceb6	2.4657416
50	0x4016290f	2.346256
51	0x4088a96e	4.2706823
52	0x404f72a9	3.2413733
53	0x40765840	3.8491364
54	0x4027d535	2.6223881
55	0x401c5698	2.4427853
56	0x405c2f6b	3.4403942
57	0x4050a172	3.2598538
58	0x4008ae21	2.135628
59	0x4071c742	3.7777867
60	0x405632c5	3.3468487
61	0x405e70fa	3.4756455
62	0x40ac202c	5.378927
63	0x3f2a3282	0.6648332
64	0x3f8e25b5	1.1105257
65	0x406c2cce	3.6902347
66	0x4060ab6a	3.5104623
67	0x40adab9a	5.4271975
68	0x401f0d7d	2.4851983
69	0x4050c3a9	3.2619421
70	0x40ecb2e7	7.3968387
71	0x40aa49de	5.321517
72	0x4049feb8	3.1561718
73	0x40837a03	4.108644
74	0x406f1271	3.7355006
75	0x4099725d	4.7952104
76	0x402abd65	2.6678097
77	0x4015321d	2.3311837
78	0x40425273	3.0362823
79	0x3f720f7b	0.9455487
80	0x403505f5	2.8284886
81	0x40572179	3.361418
82	0x40694b2a	3.6452127
83	0x40731b13	3.7985275
84	0x40671ed2	3.6112561
85	0x40600ac8	3.500658
86	0x403f7569	2.9915411
87	0x406babbe	3.6823573
88	0x40587372	3.3820462
89	0x40a07c91	5.015206
90	0x40764aa8	3.8483067
91	0x4020195b	2.5015476
92	0x3f23f2e1	0.6404248
93	0x4024edf1	2.5770228
94	0x407ea046	3.9785323
95	0x402df2d7	2.7179468
96	0x408bb6b5	4.366053
97	0x403f3c1d	2.988044
98	0x40c720b5	6.2227426
99	0x4038d4f5	2.8879979
100	0x4088d350	4.275795
101	0x408235a5	4.0690484
102	0x408c939a	4.393018
103	0x403ca40f	2.9475133
104	0x403f0d48	2.9851856
105	0x408cff60	4.4061737
106	0x408d7457	4.4204516
107	0x401449ef	2.3170125
108	0x40bc9bd7	5.8940234
109	0x403e2b3e	2.9713893
110	0x40605bff	3.505615
111	0x402cfa57	2.7027795
112	0x4075c8a0	3.8403702
113	0x4019f266	2.4054198
114	0x405dbf2c	3.4647932
115	0x4023df50	2.560505
116	0x40552447	3.3303392
117	0x3fe73d73	1.8065628
118	0x40866330	4.199608
119	0x403a2e99	2.909094
120	0x4022e5d0	2.5452766
121	0x407bde2c	3.9354353
122	0x406789b3	3.6177795
123	0x4040da5e	3.013328
124	0x4088d766	4.2762938
125	0x40374437	2.8635385
126	0x4020a248	2.5099049
127	0x4033da8e	2.8102145

model/batch_normalization_4/batchnorm/sub f4 [64]
0	0xbf8c8a8c	-1.0979781
1	0xbe57118c	-0.21002787
2	0xbe61c098	-0.22046125
3	0xbf59f894	-0.85144925
4	0xbe564e43	-0.20928292
5	0xbe75fcfc	-0.24022287
6	0xbea6312e	-0.32459396
7	0xbe2bb660	-0.1676879
8	0xbf4f4a7e	-0.8097304
9	0xbfb62128	-1.4228868
10	0xbe3a5377	-0.18195902
11	0xbe4d1907	-0.20029078
12	0xbe068f35	-0.13140567
13	0xbe403163	-0.1876884
14	0xbe445941	-0.19174673
15	0xbe554d1b	-0.20830195
16	0xbe310b04	-0.17289358
17	0xbfac374c	-1.3454375
18	0xbfaa5d08	-1.3309641
19	0xbf63bc8f	-0.8895959
20	0xbf9ce068	-1.2255983
21	0xbe4d6ef5	-0.20061858
22	0xbfcafc04	-1.5858159
23	0xbe4dc532	-0.20094755
24	0xbfba4cca	-1.4554684
25	0xbe3d08e2	-0.1846042
26	0xbf3579df	-0.70889086
27	0xbe2acc1a	-0.16679421
28	0xbe85c0c0	-0.2612362
29	0xbf47b759	-0.7801414
30	0xbe325d1b	-0.1741833
31	0xbe3a7a7d	-0.18210788
32	0xbeb6bc8f	-0.35690734
33	0xbefae0ae	-0.48999542
34	0xbe4cafd8	-0.19988954
35	0xbe53745b	-0.20649855
36	0xbe3dd237	-0.18537222
37	0xbfc7ca04	-1.5608525
38	0xbe507cc6	-0.20360097
39	0xbe3911bd	-0.18073173
40	0xbe5193a5	-0.20466478
41	0xbe5473a2	-0.20747235
42	0xbe509f1c	-0.20373195
43	0xbe5464ba	-0.20741549
44	0xbf9228e4	-1.1418729
45	0xbe8f77eb	-0.28021178
46	0xbe716949	-0.2357532
47	0xbf60ee9d	-0.87864095
48	0xbe3a0769	-0.18166889
49	0xbe4738a3	-0.19455199
50	0xbe5270a9	-0.20550789
51	0xbe4d3488	-0.2003957
52	0xbfc097f8	-1.5046377
53	0xbe442cd6	-0.19157729
54	0xbfca9d2e	-1.5829217
55	0xbe4e31e0	-0.20136213
56	0xbe0d090f	-0.13772987
57	0xbfc3fc48	-1.5311365
58	0xbfb7f51f	-1.437168
59	0xbed44204	-0.41456616
60	0xbe848d10	-0.25888872
61	0xbfa69c58	-1.3016462
62	0xbe46d9f4	-0.1941908
63	0xbe5252d1	-0.20539404
